models/iris_classifier.pt (torch, 3095 bytes, 6 tensors)

fc1.weight f4 [16, 4]
000000 59 c3 1c bd 30 87 17 bf 71 d3 2a 3f 67 37 85 3e
       -0.038272236 -0.59190655 0.66728884 0.2601883
000010 c6 c9 25 3f 5e 68 2c bf de 55 42 bd 7a 6b cb be
       0.64761007 -0.6734675 -0.04744517 -0.39730436
000020 40 b4 d1 3d 42 18 9a bd 44 3c 5e 3f 47 31 3e 3f
       0.10239458 -0.07524158 0.8681071 0.7429394
000030 ff b7 ca be 92 a0 b1 3e f0 43 1a 3e ef c2 4a bf
       -0.39593503 0.34692818 0.15064979 -0.79203695
000040 96 6b 0b bf 37 14 c6 3d e3 dd c3 be 40 e8 a5 be
       -0.5446104 0.096718244 -0.38255224 -0.32403755
000050 c4 01 67 3e a4 ab f9 3d a1 f8 65 3f 9f e8 6b 3f
       0.22559267 0.12190941 0.898325 0.92151827
000060 a9 6d c4 3d a5 1a 24 bf d7 96 f6 bc f2 88 42 3b
       0.095912285 -0.64103156 -0.030101223 0.0029683677
000070 14 9d cf 3c 68 6a b6 3d 04 6f 9d be 9b 7a 23 bf
       0.025343455 0.08907014 -0.3074876 -0.63858956
000080 f6 8b 89 bd d1 c7 a5 3e b1 23 14 3f 0d fb b5 be
       -0.067161486 0.3237901 0.5786696 -0.355431
000090 24 66 1c bf b5 ff 1c 3f 72 a2 d7 be ed 20 d1 be
       -0.61093354 0.6132768 -0.42116123 -0.40845433
0000a0 4e ea d0 be 89 76 7d 3d a4 62 48 bf dc 25 42 be
       -0.4080376 0.061880622 -0.78275514 -0.18959755
0000b0 bc a7 c8 3e b3 af fe 3e 14 c8 56 be ec 1d c3 3c
       0.3919047 0.49743423 -0.20974761 0.023817979
0000c0 9b f1 91 3e 0e 6c 28 bf c8 4e 56 be 53 6a 17 bf
       0.28504643 -0.6578988 -0.2092849 -0.5914661
0000d0 40 50 29 bf 2f e4 a4 3e eb 86 4e 3d 6b f6 05 bf
       -0.66138077 0.3220534 0.050421637 -0.5232913
0000e0 43 67 cc 3e 41 1a f8 be 70 8a 5f 3f 35 34 4a 3f
       0.39922532 -0.4845753 0.87320614 0.7898591
0000f0 89 1e 9a 3d d3 49 27 bf f9 3c 62 3e 43 e6 ff 3e
       0.07525355 -0.6534702 0.22093572 0.49980363

fc1.bias f4 [16]
000000 16 5a a2 bd ce 91 37 3e 35 8e 1e be 2a 47 ed 3d
       -0.07927339 0.17926714 -0.15483935 0.11585839
000010 da 64 a0 3e 21 6a 38 3f 4a 42 46 3d dd 49 8c 3f
       0.31326944 0.7203694 0.048403062 1.0960041
000020 d3 ce a7 be c7 b9 f6 bd 07 c4 84 3d 3d 0d bf 3e
       -0.32774982 -0.12047153 0.06482702 0.37314788
000030 08 1b f5 3b ef 01 24 be c0 9b 29 3f 18 d1 38 3d
       0.007480029 -0.16016363 0.6625328 0.045121282

fc2.weight f4 [8, 16]
000000 b2 1e 1a be 3c f5 98 3d 28 e0 29 3e 3e a5 22 be
       -0.15050772 0.0746865 0.16589415 -0.15883347
000010 cc be 27 be 78 1b fa bd 3c 46 bd bd d0 7f ea bc
       -0.16381377 -0.122122705 -0.09241912 -0.028625399
000020 b6 55 51 be 80 ea ae 3c 80 dd 2e 3e 00 c1 a7 3c
       -0.20442852 0.021352053 0.17076683 0.020477772
000030 30 3f 27 3d f2 98 7b be e8 b5 19 bd ca 36 6b 3e
       0.040831745 -0.24570063 -0.037526995 0.22970119
000040 41 d2 a6 be d3 57 7a 3c 00 b2 1c 3e d2 df 0e 3f
       -0.32582286 0.015279728 0.15302277 0.5581027
000050 3a a6 df 3e a9 20 5e be c3 c0 ca be 1b 77 26 3e
       0.43681508 -0.21692146 -0.3960019 0.16256373
000060 dc 6a 75 3e a4 af 02 3f 9c 54 14 3f 00 b8 dc bd
       0.23966545 0.51049256 0.57941604 -0.10777283
000070 69 55 bf bd 0b 62 27 3f 4b 90 63 be 59 5b 7f be
       -0.093424626 0.65383977 -0.22223012 -0.2493719
000080 30 33 fa be 62 58 4a bc d5 85 25 be b2 fa 01 3f
       -0.48867178 -0.012350174 -0.16164334 0.50773156
000090 6e 86 96 3e a4 0c b1 be f4 f5 41 be 3e 9a db 3e
       0.29399437 -0.34579957 -0.1894148 0.42891115
0000a0 82 29 f3 bd 8c c6 6a 3e e4 51 45 3e 7b 10 c7 3e
       -0.11873151 0.22927302 0.1926952 0.3887976
0000b0 56 14 0c 3d 1e 23 96 3e 0d 93 36 bd 75 12 dc be
       0.03419908 0.29323667 -0.044573832 -0.42982832
0000c0 ed 47 b9 be 41 05 33 be d4 2c 08 bc b1 6b 34 3e
       -0.36187688 -0.17482473 -0.008311469 0.17619206
0000d0 8c d4 7e 3e 03 21 5b bd 51 88 71 be 7d ef 06 3d
       0.24885768 -0.05349828 -0.23587157 0.032943238
0000e0 74 fc 8d 3e 86 35 a2 3d c9 6d c8 3d 85 67 9e be
       0.2773167 0.07920365 0.09786565 -0.30938354
0000f0 db a1 1c 3e 50 8c e4 3e 41 e2 17 bd df fa 17 3d
       0.15296118 0.446383 -0.037081007 0.037104484
000100 1b 4a 80 3e 28 cd 14 be 87 7f 0e 3f af 55 d5 bd
       0.25056538 -0.14531386 0.5566334 -0.104167335
000110 05 75 b0 3d cc 83 cf 3e 99 2e d4 3b 4c 3d 0c bf
       0.0861607 0.4053024 0.0064752814 -0.5478103
000120 7b 38 a1 3d 1d be 0b 3e 97 ea 45 3e e1 2f 7a 3e
       0.07872101 0.13646741 0.1932777 0.24432327
000130 82 fc fa bd bc 53 76 3d 2c 33 e8 3e 9b 37 a2 3d
       -0.12255193 0.06013845 0.4535154 0.07920762
000140 d5 f0 8f be 2e 44 a2 3e 8c f4 95 be a5 c9 d3 3d
       -0.28113428 0.31692642 -0.29288137 0.10341195
000150 e9 77 89 3d 1c 38 5f 3d cb 3b 88 bc 04 99 1f 3f
       0.06712324 0.05449687 -0.016630074 0.6234286
000160 a5 3c 26 be e9 fd a6 3d 7d d6 da 3e 04 94 63 3e
       -0.16234072 0.08153898 0.42741767 0.22224432
000170 33 10 0c 3f 6c 11 cb 3e 40 84 09 bd c7 5c 2d be
       0.5471222 0.3966173 -0.03357339 -0.16929923
000180 bd 89 a8 3e 9d 62 f6 3e 98 9c 18 3f 0a d7 19 be
       0.32917586 0.4812211 0.59613943 -0.15023437
000190 7c 59 51 be 57 12 f9 3e c1 bf aa 3e d7 9d e6 3d
       -0.20444292 0.48646805 0.33349422 0.11260574
0001a0 fc fe 4e 3e f2 62 2e bd 84 79 f6 bd f1 ba 00 bd
       0.20214456 -0.04257483 -0.12034896 -0.03142828
0001b0 29 3b 92 3e 47 23 eb be f9 4c 26 3f ae bf ee 3e
       0.2856076 -0.45925352 0.649612 0.46630615
0001c0 62 e0 75 be 0d 51 9a 3e 27 67 ea be 96 4c c9 3d
       -0.24011377 0.30139962 -0.45781824 0.09829061
0001d0 70 c5 98 3d e0 a3 dd 3c 94 a2 f7 3d ca 7d 34 3f
       0.07459533 0.02705568 0.12091556 0.7050444
0001e0 eb a5 0c be 2a 27 40 3e ac 38 db 3d b7 89 d0 3e
       -0.13735168 0.1876494 0.10704169 0.40730068
0001f0 03 8c 76 3e 52 31 4d 3e 74 cd 5f 3d f1 4c f8 bd
       0.24076848 0.20038345 0.054639295 -0.121240504

fc2.bias f4 [8]
000000 2c 49 0f be 04 c3 18 3e 8c 03 86 bd a6 db e3 3d
       -0.13992757 0.14918143 -0.06543645 0.11125879
000010 8a 44 5c bd df e4 10 3f 36 a0 ed 3e 75 77 f5 3e
       -0.0537763 0.5659923 0.46411294 0.479427

fc3.weight f4 [3, 8]
000000 74 0f 0e be 3d 78 d7 3e 1c b3 f7 3e 82 37 f6 3d
       -0.13873082 0.42083922 0.48378837 0.12022306
000010 ea c1 d3 bd 5e 97 c1 3e 88 d3 27 bf 38 0f 86 3e
       -0.103397205 0.37810796 -0.65557146 0.26183486
000020 c6 fc 26 3e ca 07 1b bf f4 d0 23 bf 6e 1a de be
       0.16307363 -0.6055876 -0.6399071 -0.4337954
000030 1d b0 dc bd 81 e1 27 3f e8 58 0c 3e 43 40 4d 3f
       -0.107757784 0.65578467 0.1370579 0.8017618
000040 00 da a1 3a 48 fa 03 be 14 1a f6 be 85 5e 9a be
       0.0012348294 -0.12888443 -0.4806677 -0.30150238
000050 0d 53 f0 3e 0e a8 74 bf 85 6a 06 3f 35 6f 8a bf
       0.46938363 -0.9556893 0.52506286 -1.0815188

fc3.bias f4 [3]
000000 c6 24 f6 be 0e ec be 3e 14 8c 40 be
       -0.4807493 0.3728947 -0.18803436
