models/iris_classifier.pt (torch, 3095 bytes, 6 tensors)

fc1.weight f4 [16, 4]
-0.6266966 0.63260674 -0.60015965 -0.5416585 -0.038284015 -0.1599659 0.55058646 0.5515586
0.4396721 -0.119334 -0.4597075 -0.44933903 0.35306928 -0.9436772 0.8611623 0.10704451
-0.40672874 -0.17696919 0.033453397 -0.44160074 0.19846724 -0.40786952 -0.13566501 -0.79129755
-0.75009024 0.55752563 -0.6711019 -0.5813011 0.49857548 0.76688415 0.157191 0.1675443
0.23809795 -0.33799982 0.9206177 0.627623 -0.5205431 -0.101157635 -0.26284143 0.19301386
-0.25246015 0.5194188 0.30227616 -0.5789028 0.10655362 -0.29226932 0.66812086 0.7146466
-0.10904646 0.28103912 -0.29835677 -0.39050278 -0.3292738 -0.015560503 0.36240265 0.58040684
-0.57444686 0.4038717 -0.43803453 -0.7593733 0.2523047 -0.40052715 -0.049992863 -0.06694811
00000000: 306f 20bf 84f2 213f 10a4 19bf 22aa 0abf
00000010: b3cf 1cbd 1ace 23be 3cf3 0c3f f232 0d3f
00000020: b41c e13e 6265 f4bd c85e ebbe c40f e6be
00000030: 7fc5 b43e d494 71bf 2275 5c3f 273a db3d
00000040: c03e d0be 6937 35be 6e06 093d 7e19 e2be
00000050: ff3a 4b3e 46d4 d0be c5eb 0abe 7a92 4abf
00000060: ea05 40bf 00ba 0e3f 56cd 2bbf 26d0 14bf
00000070: 4945 ff3e 8552 443f adf6 203e bc90 2b3e
00000080: f3cf 733e 500e adbe 9aad 6b3f e7ab 203f
00000090: 5042 05bf bc2b cfbd 2793 86be 6da5 453e
000000a0: 7542 81be a1f8 043f f1c3 9a3e f932 14bf
000000b0: c938 da3d 53a4 95be f809 2b3f 14f3 363f
000000c0: c053 dfbd 5ce4 8f3e 38c2 98be fbef c7be
000000d0: 9396 a8be 7bf1 7ebc d78c b93e 8b95 143f
000000e0: f30e 13bf 45c8 ce3e 1046 e0be 4a66 42bf
000000f0: 152e 813e e511 cdbe 51c5 4cbd 171c 89bd

fc1.bias f4 [16]
0.45618117 -0.33440775 0.815084 0.26033598 -0.35279077 0.6668705 0.17309174 0.034357816
0.26936343 -0.33431396 0.78904873 -0.25877646 0.03322348 0.6321757 -0.097711995 0.58121324
00000000: 9490 e93e 7e37 abbe 58a9 503f c24a 853e
00000010: fea0 b4be 06b8 2a3f f63e 313e c8ba 0c3d
00000020: 01ea 893e 332b abbe 19ff 493f 597e 84be
00000030: 5815 083d 44d6 213f 3a1d c8bd 64ca 143f

fc2.weight f4 [8, 16]
0.17111951 -0.044206813 0.10569851 -0.099861935 -0.16800375 0.102034755 0.048441857 -0.05089546
0.005889212 0.21112166 -0.114255376 -0.17419982 0.1264734 0.034349695 -0.29764906 -0.16837661
0.03255576 -0.12485981 -0.21581471 0.21955124 -0.12834558 -0.15103018 0.10823318 -0.04682842
-0.23360434 -0.018023342 -0.14800167 -0.12381458 -0.2117874 -0.0324865 -0.2310777 0.04074341
0.6109676 -0.18677865 0.2011112 -0.5188242 0.10408643 0.31441683 0.62392294 0.14544593
-0.09893975 0.2873323 0.3395333 -0.29260504 0.43322557 -0.5150394 0.3326848 -0.38490653
-0.49601436 0.5105145 -0.52956265 0.41159022 0.11242293 -0.426371 0.13443056 0.32526383
0.5790913 0.19968934 -0.6257 0.5810401 0.0338234 0.13125868 -0.16211869 -0.22885643
-0.14285561 0.7229783 0.011662132 0.7252372 -0.33132926 0.16520731 0.010227593 -0.015781429
0.6232563 -0.20849176 0.07378844 0.59139943 0.039778545 0.39225644 -0.099109486 0.43406045
0.33612284 -0.44283056 0.4449329 0.019449962 0.09730653 0.6451256 0.4553605 0.3733055
-0.23025258 -0.2998624 0.6627953 -0.47865686 0.071549796 0.047351737 0.13463691 0.45184147
0.16547172 0.6216045 0.10877779 0.34903032 -0.17834808 -0.35188204 -0.1697135 0.14411259
0.21319747 0.21889496 -0.217878 0.0022278784 -0.2582811 -0.11022363 0.06683859 0.011897163
-0.4613999 -0.87778354 0.54032534 0.51352644 -0.04265657 0.58259696 -0.2627873 0.28795323
0.2021301 -0.38305953 0.5464607 -0.48594466 -0.3962799 0.3591719 -0.30750135 0.6829333
00000000: f439 2f3e 3412 35bd 7678 d83d 6a84 ccbd
00000010: 2d09 2cbe 99f7 d03d f86a 463d c277 50bd
00000020: 4afa c03b 4730 583e b9fe e9bd 7061 32be
00000030: 3e82 013e 44b2 0c3d 7565 98be eb6a 2cbe
00000040: 3059 053d 80b6 ffbd 88fe 5cbe 0ad2 603e
00000050: 066d 03be a8a7 1abe 5ca9 dd3d 28cf 3fbd
00000060: fa35 6fbe b0a5 93bc c08d 17be 8092 fdbd
00000070: ccde 58be 9010 05bd a29f 6cbe 90e2 263d
00000080: 5f68 1c3f e742 3fbe 18f0 4d3e aad1 04bf
00000090: 442b d53d 3efb a03e 6ab9 1f3f c7ef 143e
000000a0: eca0 cabd 381d 933e 4fd7 ad3e 54d0 95be
000000b0: becf dd3e 9fd9 03bf a955 aa3e 7812 c5be
000000c0: 98f5 fdbe 14b1 023f 6b91 07bf f4bb d23e
000000d0: fe3d e63d 4d4d dabe 2aa8 093e fb88 a63e
000000e0: 543f 143f 5d7b 4c3e e02d 20bf 0bbf 143f
000000f0: 688a 0a3d ad68 063e 7102 26be 5759 6abe
00000100: be48 12be 1b15 393f 8712 3f3c 25a9 393f
00000110: fda3 a9be 1b2c 293e a291 273c 0e48 81bc
00000120: ba8d 1f3f dd7e 55be 651e 973d f465 173f
00000130: d4ee 223d d6d5 c83e eaf9 cabd 2c3d de3e
00000140: 4b18 ac3e b0ba e2be 3fce e33e 8755 9f3c
00000150: a548 c73d f426 253f 0325 e93e e621 bf3e
00000160: 55c7 6bbe 9187 99be f4ac 293f 8312 f5be
00000170: b388 923d e5f3 413d 42de 093e c457 e73e
00000180: 6b71 293e 7921 1f3f e4c6 de3d 1ab4 b23e
00000190: e1a0 36be e229 b4be 60c9 2dbe 4092 133e
000001a0: 7050 5a3e 0026 603e 691b 5fbe 9901 123b
000001b0: 6c3d 84be edbc e1bd ace2 883d 52ec 423c
000001c0: 9c3c ecbe 6cb6 60bf c352 0a3f 7876 033f
000001d0: a8b8 2ebd 1325 153f 0f8c 86be 9b6e 933e
000001e0: 31fb 4e3e 6120 c4be d9e4 0b3f bdcd f8be
000001f0: 33e5 cabe 61e5 b73e d170 9dbe b7d4 2e3f

fc2.bias f4 [8]
-0.17270234 -0.17090881 0.35465634 0.02844433 0.05498462 0.62749386 -0.19578543 0.37743133
00000000: e2d8 30be b802 2fbe 8495 b53e 1504 e93c
00000010: 8e37 613d 70a3 203f fa7b 48be ae3e c13e

fc3.weight f4 [3, 8]
-0.098521575 0.27380493 0.6219363 -0.3328775 -0.5508262 0.423448 -0.012686956 -0.4131132
0.11282927 0.23465392 -0.3212433 -0.40545398 0.26059946 0.48680434 -0.19239652 0.6710629
0.24657626 -0.28685242 -0.052174952 0.82219523 0.5316775 -0.65003467 0.28935203 -0.11898975
00000000: aec5 c9bd 2930 8c3e 3837 1f3f eb6e aabe
00000010: f202 0dbf 2dce d83e f3dc 4fbc 9383 d3be
00000020: 0813 e73d 1e49 703e 007a a4be aa97 cfbe
00000030: 4b6d 853e 6b3e f93e 9803 45be c7ca 2b3f
00000040: 7d7e 7c3e 52de 92be 67b5 55bd 637b 523f
00000050: 041c 083f ac68 26bf f325 943e e6b0 f3bd

fc3.bias f4 [3]
0.0007364642 0.27025706 0.11689551
00000000: 470f 413a 225f 8a3e ea66 ef3d
