models/iris_classifier.pt (torch, 3095 bytes, 6 tensors)

fc1.weight f4 [16, 4]
0	0xbef545c7	-0.47904798
1	0x3ec16e59	0.377795
2	0xbeea971a	-0.45818406
3	0xbc3c49c5	-0.011492197
4	0x3e00b290	0.12568116
5	0x3d871753	0.065962456
6	0x3f0cd36a	0.5501009
7	0x3e6c4749	0.23074068
8	0x3eb3fcc2	0.35153776
9	0x3ec40ead	0.38292447
10	0x3d159a75	0.036524255
11	0xbf09b858	-0.5379691
12	0xbf318a9a	-0.69352114
13	0x3ef5477c	0.479061
14	0xbca3ffd3	-0.020019447
15	0xbecc34f1	-0.3988414
16	0xbf004be3	-0.50115794
17	0xbeb2ed95	-0.34946886
18	0xbe9c8cd1	-0.30576184
19	0x3e0fa73e	0.14028642
20	0xbe36db1f	-0.17857026
21	0x3f1b9f8d	0.6079033
22	0xbf2fd4f9	-0.68684345
23	0x3e2c8b2d	0.16849966
24	0x3e5b19e4	0.21396595
25	0xbf0a6266	-0.54056394
26	0x3d973853	0.0738379
27	0xbeca4682	-0.39506918
28	0xbf0967f1	-0.53674227
29	0xbdbb41aa	-0.09143384
30	0xbe16b8ef	-0.14718984
31	0xbf16cbfd	-0.5890501
32	0x3ea0fba9	0.31442
33	0xbed87a48	-0.42280793
34	0xbeb831a6	-0.3597538
35	0xbd1908e5	-0.037361998
36	0x3e655489	0.22395529
37	0xbdc33138	-0.09530872
38	0x3e683964	0.22678143
39	0xbeeb4a69	-0.45955208
40	0xbe5a70a9	-0.21332039
41	0x3ee8b443	0.4545003
42	0xbe94f897	-0.2909591
43	0xbf374417	-0.7158827
44	0xbdca6a37	-0.0988354
45	0x3dce6f1e	0.10079788
46	0x3ddc8207	0.10766988
47	0xbed5c383	-0.41750726
48	0x3e773cc8	0.2414428
49	0xbe89f2b2	-0.26942974
50	0x3d5fa621	0.054601792
51	0x3f18d4d7	0.5969977
52	0xbea98803	-0.3311158
53	0xbe4e52ab	-0.20148723
54	0x3ea99360	0.3312025
55	0xbd3465e0	-0.044042468
56	0x3eb41c89	0.3517802
57	0x3ece8f0e	0.40343517
58	0xbd968759	-0.07350034
59	0x3cb51b56	0.022107761
60	0xbeafdc59	-0.343478
61	0xbe962c20	-0.2933054
62	0xbf0c5890	-0.54822636
63	0xbedae1bf	-0.42750356

fc1.bias f4 [16]
0	0xbe249571	-0.16072632
1	0x3e9b07f0	0.30279493
2	0xbd280311	-0.04101855
3	0xbe6578a8	-0.22409308
4	0x3e1f1315	0.15534623
5	0x3e8b74af	0.2723746
6	0xbe087932	-0.13327482
7	0xbcafaeb2	-0.021445606
8	0x3e77ae96	0.24187693
9	0x3e44406d	0.19165201
10	0x3d9382c4	0.07202676
11	0x3ecd4a23	0.40095624
12	0x3eefc167	0.46827242
13	0x3f0359d3	0.51308936
14	0x3d45b956	0.048272453
15	0x3ef174e6	0.471595

fc2.weight f4 [8, 16]
0	0x3ed027ed	0.4065546
1	0x3e12113c	0.14264387
2	0x3e83e315	0.25759187
3	0x3ebb0b8e	0.36532253
4	0x3d2f8013	0.04284675
5	0x3e7236ab	0.23653667
6	0xbdad8d33	-0.08474197
7	0x3ec015df	0.37516686
8	0x3c3b320c	0.011425506
9	0xbdeb0c77	-0.11476987
10	0x3e1692b8	0.14704406
11	0x3e28522a	0.16437593
12	0xbea02982	-0.31281668
13	0xbed3f8b8	-0.41400695
14	0xbcd34a89	-0.025792377
15	0x3e1f0916	0.1553081
16	0x3e181c36	0.14854512
17	0xbe4c9a16	-0.19980654
18	0x3e2c599c	0.16831058
19	0x3e6d9e5c	0.2320494
20	0x3eab21f6	0.33424348
21	0x3e1b71f9	0.15180196
22	0x3e122f33	0.14275818
23	0x3e8ac8ae	0.2710623
24	0x3eb0cc4f	0.34530875
25	0x3e9d04b5	0.30667654
26	0x3ec0fbd8	0.37692142
27	0x3f040100	0.51564026
28	0xbe8deb8c	-0.2771877
29	0x3e0a2bbb	0.13493244
30	0xb9b6d788	-0.00034874328
31	0x3e8735d5	0.26408258
32	0x3efb06f6	0.49028748
33	0x3e2162c2	0.1576033
34	0x3e3544dd	0.1770205
35	0x3e9a8e85	0.3018686
36	0xbdf44890	-0.11927903
37	0x3e6f4cfa	0.23369208
38	0xbe7cb612	-0.2467883
39	0x3eb12ba6	0.34603614
40	0x3e2217b6	0.15829358
41	0xbe836912	-0.256661
42	0x3eb5b945	0.35492912
43	0x3e2e96e5	0.17049749
44	0xbec08d9e	-0.37608045
45	0x3e235d58	0.15953577
46	0x3e20ad02	0.15690997
47	0x3cd0fa5a	0.025510002
48	0x3e697024	0.22796685
49	0xbe686e1c	-0.22698253
50	0x3e6f321b	0.23358957
51	0x3e92f0e9	0.28699425
52	0xbe2ce999	-0.16885985
53	0x3e8601f3	0.26173362
54	0xbe7d2b66	-0.24723586
55	0x3ec4f8e4	0.38471138
56	0xbe74d5a8	-0.23909628
57	0xbe725d05	-0.23668297
58	0x3ee8aa26	0.45442313
59	0x3eedad72	0.4642139
60	0xbeccfcaf	-0.40036532
61	0x3cab56e2	0.020915452
62	0x3d182c69	0.037151728
63	0xbbe70e2c	-0.00705125
64	0x3e70e434	0.23524553
65	0xbe8a9ac1	-0.27071193
66	0x3df1eb50	0.118124604
67	0x3e3d8937	0.18509375
68	0x3e360b3d	0.17777725
69	0x3ea89e0a	0.32933074
70	0xbdc961e5	-0.09833125
71	0x3eb42224	0.35182297
72	0x3dd1daa3	0.1024678
73	0x3e561bfc	0.20909113
74	0x3e2e9d9d	0.17052312
75	0x3edcf928	0.4315884
76	0xbce5509f	-0.027992545
77	0xbb611cc8	-0.003434943
78	0x3e1599c1	0.14609434
79	0x3cee1e0f	0.029067067
80	0x3e686a04	0.22696692
81	0xbd5b9f54	-0.053618744
82	0xbe3f630a	-0.18690124
83	0xbd69be78	-0.05706641
84	0x3e3b5508	0.18294156
85	0xbdd792c4	-0.1052604
86	0x3df28f3a	0.118437245
87	0xbe238f11	-0.15972544
88	0x3e37a905	0.1793557
89	0xbe34aa56	-0.17643103
90	0x3e264052	0.16235474
91	0xbe065287	-0.13117419
92	0x3de1fb22	0.11034228
93	0xbe2a7262	-0.16645196
94	0xbe7a2178	-0.2442683
95	0xbe8b65ff	-0.27226254
96	0x3e2331c2	0.1593695
97	0xbd8b8b05	-0.06813625
98	0xbda5a83a	-0.08088727
99	0xbb954200	-0.004554987
100	0xbe6ec66a	-0.23317876
101	0xbd209ed5	-0.039213974
102	0xbcfb2890	-0.03065899
103	0x3dca2114	0.098695904
104	0x3dfed535	0.1244301
105	0x3de89dcb	0.113582216
106	0xbe45b47c	-0.1930713
107	0xbe338c27	-0.17533933
108	0xbda6004d	-0.08105526
109	0xbdc03ea0	-0.09386945
110	0x3e43a1b4	0.19104654
111	0xbcde27e0	-0.027118623
112	0xbe7537fc	-0.23947138
113	0x3e84ff00	0.259758
114	0xbe86dea8	-0.26341748
115	0xbb1ea800	-0.0024209023
116	0xbce5b353	-0.02803961
117	0xbdfb0643	-0.12257054
118	0xbd007643	-0.031362783
119	0x3d958d4f	0.07302343
120	0x3e25775a	0.1615881
121	0xbe89c398	-0.2690704
122	0xbe2c6b42	-0.1683779
123	0xbd615dbe	-0.05502104
124	0x3e39d9b7	0.18149458
125	0xbd4e9f7a	-0.050445057
126	0x3e51522d	0.20441504
127	0xbe2620a7	-0.16223393

fc2.bias f4 [8]
0	0x3d1f0f2c	0.03883283
1	0x3e9bfa64	0.3046447
2	0xbd57124d	-0.052507687
3	0x3e29f524	0.1659742
4	0x3e416819	0.18887366
5	0xbe65551c	-0.22395748
6	0xbda89927	-0.082323365
7	0xbd6d5a28	-0.057947308

fc3.weight f4 [3, 8]
0	0x3ed04661	0.40678695
1	0x3e2fa82e	0.17153999
2	0x3e63dda5	0.2225252
3	0x3f12f8cf	0.574109
4	0x3e93fc05	0.28903213
5	0xbde58bcc	-0.11208305
6	0x3e9a5fc6	0.30151194
7	0x3da1f2e2	0.07907654
8	0xbef0a59d	-0.47001353
9	0x3ee331fc	0.44374073
10	0xbe7167db	-0.23574774
11	0xbdee06b1	-0.1162237
12	0x3e9b8261	0.3037291
13	0xbeb19c63	-0.34689626
14	0x3ead1b32	0.3380981
15	0xbe196d72	-0.14983156
16	0xbec2fec9	-0.3808501
17	0xbef90156	-0.48633832
18	0xbf097e05	-0.53707916
19	0x3cf0da35	0.029400924
20	0xbe82f8f7	-0.2558057
21	0xbe605a94	-0.21909553
22	0x3dbf1481	0.09330083
23	0x3e850ed5	0.25987878

fc3.bias f4 [3]
0	0xbf155cc8	-0.583447
1	0xbb3f39dc	-0.0029178774
2	0x3e4b8372	0.19874361
